…
+----------------------+-------------------------------------------------------+
| Water flow file      | D:/GraphormerForRobustness/dataset2/demand_patten_361 |
|                      | 2/simulate_flow3.csv                                  |
+----------------------+-------------------------------------------------------+
| Water pressure file  | D:/GraphormerForRobustness/dataset2/demand_patten_361 |
|                      | 2/simulate_pressure3.csv                              |
+----------------------+-------------------------------------------------------+
KANSA(
  (flow_batch): Sequential(
    (0): FourierKANLayer()
    (1): FourierKANLayer()
    (2): LayerNorm((96,), eps=1e-05, elementwise_affine=True)
  )
  (pressure_batch): Sequential(
    (0): FourierKANLayer()
    (1): FourierKANLayer()
    (2): LayerNorm((96,), eps=1e-05, elementwise_affine=True)
  )
  (demand_batch): Sequential(
    (0): FourierKANLayer()
    (1): FourierKANLayer()
    (2): LayerNorm((96,), eps=1e-05, elementwise_affine=True)
  )
  (flow_features): Sequential(
    (0): ChebyshevKANLayer()
    (1): ChebyshevKANLayer()
    (2): LayerNorm((34,), eps=1e-05, elementwise_affine=True)
  )
  (pressure_features): Sequential(
    (0): ChebyshevKANLayer()
    (1): ChebyshevKANLayer()
    (2): LayerNorm((24,), eps=1e-05, elementwise_affine=True)
  )
  (demand_features): Sequential(
    (0): ChebyshevKANLayer()
    (1): ChebyshevKANLayer()
    (2): LayerNorm((23,), eps=1e-05, elementwise_affine=True)
  )
  (attention_pressure_batch): Attention(
    (query_layer): Linear(in_features=96, out_features=96, bias=True)
    (key_layer): Linear(in_features=96, out_features=96, bias=True)
    (value_layer): Linear(in_features=96, out_features=96, bias=True)
    (layer_norm): LayerNorm((96,), eps=1e-05, elementwise_affine=True)
  )
  (attention_flow_batch): Attention(
    (query_layer): Linear(in_features=96, out_features=96, bias=True)
    (key_layer): Linear(in_features=96, out_features=96, bias=True)
    (value_layer): Linear(in_features=96, out_features=96, bias=True)
    (layer_norm): LayerNorm((96,), eps=1e-05, elementwise_affine=True)
  )
  (attention_demand_batch): Attention(
    (query_layer): Linear(in_features=96, out_features=96, bias=True)
    (key_layer): Linear(in_features=96, out_features=96, bias=True)
    (value_layer): Linear(in_features=96, out_features=96, bias=True)
    (layer_norm): LayerNorm((96,), eps=1e-05, elementwise_affine=True)
  )
  (attention_pressure_features): Attention(
    (query_layer): Linear(in_features=24, out_features=24, bias=True)
    (key_layer): Linear(in_features=24, out_features=24, bias=True)
    (value_layer): Linear(in_features=24, out_features=24, bias=True)
    (layer_norm): LayerNorm((24,), eps=1e-05, elementwise_affine=True)
  )
  (attention_flow_features): Attention(
    (query_layer): Linear(in_features=34, out_features=34, bias=True)
    (key_layer): Linear(in_features=34, out_features=34, bias=True)
    (value_layer): Linear(in_features=34, out_features=34, bias=True)
    (layer_norm): LayerNorm((34,), eps=1e-05, elementwise_affine=True)
  )
  (attention_demand_features): Attention(
    (query_layer): Linear(in_features=23, out_features=23, bias=True)
    (key_layer): Linear(in_features=23, out_features=23, bias=True)
    (value_layer): Linear(in_features=23, out_features=23, bias=True)
    (layer_norm): LayerNorm((23,), eps=1e-05, elementwise_affine=True)
  )
  (pressure_1): Sequential(
    (0): LayerNorm((24,), eps=1e-05, elementwise_affine=True)
    (1): ChebyshevKANLayer()
    (2): ChebyshevKANLayer()
  )
  (pressure_2): Sequential(
    (0): LayerNorm((24,), eps=1e-05, elementwise_affine=True)
    (1): ChebyshevKANLayer()
    (2): ChebyshevKANLayer()
  )
  (flow_1): Sequential(
    (0): LayerNorm((34,), eps=1e-05, elementwise_affine=True)
    (1): ChebyshevKANLayer()
    (2): ChebyshevKANLayer()
  )
  (flow_2): Sequential(
    (0): LayerNorm((34,), eps=1e-05, elementwise_affine=True)
    (1): ChebyshevKANLayer()
    (2): ChebyshevKANLayer()
  )
  (demand_1): Sequential(
    (0): LayerNorm((23,), eps=1e-05, elementwise_affine=True)
    (1): ChebyshevKANLayer()
    (2): ChebyshevKANLayer()
  )
  (demand_2): Sequential(
    (0): LayerNorm((23,), eps=1e-05, elementwise_affine=True)
    (1): ChebyshevKANLayer()
    (2): ChebyshevKANLayer()
  )
  (pressure_sum): Sequential(
    (0): LayerNorm((12,), eps=1e-05, elementwise_affine=True)
    (1): ChebyshevKANLayer()
    (2): ChebyshevKANLayer()
  )
  (flow_sum): Sequential(
    (0): LayerNorm((12,), eps=1e-05, elementwise_affine=True)
    (1): ChebyshevKANLayer()
    (2): ChebyshevKANLayer()
  )
  (demand_sum): Sequential(
    (0): LayerNorm((12,), eps=1e-05, elementwise_affine=True)
    (1): ChebyshevKANLayer()
    (2): ChebyshevKANLayer()
  )
  (graph): Sequential(
    (0): LayerNorm((3,), eps=1e-05, elementwise_affine=True)
    (1): ChebyshevKANLayer()
    (2): ChebyshevKANLayer()
  )
  (flow_out): Sequential(
    (0): ChebyshevKANLayer()
    (1): ChebyshevKANLayer()
    (2): Sigmoid()
  )
  (pressure_out): Sequential(
    (0): ChebyshevKANLayer()
    (1): ChebyshevKANLayer()
    (2): Sigmoid()
  )
  (demand_out): Sequential(
    (0): ChebyshevKANLayer()
    (1): ChebyshevKANLayer()
…
