…
+----------------------+-------------------------------------------------------+
| Water flow file      | D:/GraphormerForRobustness/dataset2/demand_patten_361 |
|                      | 2/simulate_flow3.csv                                  |
+----------------------+-------------------------------------------------------+
| Water pressure file  | D:/GraphormerForRobustness/dataset2/demand_patten_361 |
|                      | 2/simulate_pressure3.csv                              |
+----------------------+-------------------------------------------------------+
KANSA(
  (flow_batch): Sequential(
    (0): Linear(in_features=96, out_features=12, bias=True)
    (1): Linear(in_features=12, out_features=96, bias=True)
    (2): LayerNorm((96,), eps=1e-05, elementwise_affine=True)
  )
  (pressure_batch): Sequential(
    (0): Linear(in_features=96, out_features=12, bias=True)
    (1): Linear(in_features=12, out_features=96, bias=True)
    (2): LayerNorm((96,), eps=1e-05, elementwise_affine=True)
  )
  (demand_batch): Sequential(
    (0): Linear(in_features=96, out_features=12, bias=True)
    (1): Linear(in_features=12, out_features=96, bias=True)
    (2): LayerNorm((96,), eps=1e-05, elementwise_affine=True)
  )
  (flow_features): Sequential(
    (0): Linear(in_features=34, out_features=12, bias=True)
    (1): Linear(in_features=12, out_features=34, bias=True)
    (2): LayerNorm((34,), eps=1e-05, elementwise_affine=True)
  )
  (pressure_features): Sequential(
    (0): Linear(in_features=24, out_features=12, bias=True)
    (1): Linear(in_features=12, out_features=24, bias=True)
    (2): LayerNorm((24,), eps=1e-05, elementwise_affine=True)
  )
  (demand_features): Sequential(
    (0): Linear(in_features=23, out_features=12, bias=True)
    (1): Linear(in_features=12, out_features=23, bias=True)
    (2): LayerNorm((23,), eps=1e-05, elementwise_affine=True)
  )
  (attention_pressure_batch): Attention(
    (query_layer): Linear(in_features=96, out_features=96, bias=True)
    (key_layer): Linear(in_features=96, out_features=96, bias=True)
    (value_layer): Linear(in_features=96, out_features=96, bias=True)
    (layer_norm): LayerNorm((96,), eps=1e-05, elementwise_affine=True)
  )
  (attention_flow_batch): Attention(
    (query_layer): Linear(in_features=96, out_features=96, bias=True)
    (key_layer): Linear(in_features=96, out_features=96, bias=True)
    (value_layer): Linear(in_features=96, out_features=96, bias=True)
    (layer_norm): LayerNorm((96,), eps=1e-05, elementwise_affine=True)
  )
  (attention_demand_batch): Attention(
    (query_layer): Linear(in_features=96, out_features=96, bias=True)
    (key_layer): Linear(in_features=96, out_features=96, bias=True)
    (value_layer): Linear(in_features=96, out_features=96, bias=True)
    (layer_norm): LayerNorm((96,), eps=1e-05, elementwise_affine=True)
  )
  (attention_pressure_features): Attention(
    (query_layer): Linear(in_features=24, out_features=24, bias=True)
    (key_layer): Linear(in_features=24, out_features=24, bias=True)
    (value_layer): Linear(in_features=24, out_features=24, bias=True)
    (layer_norm): LayerNorm((24,), eps=1e-05, elementwise_affine=True)
  )
  (attention_flow_features): Attention(
    (query_layer): Linear(in_features=34, out_features=34, bias=True)
    (key_layer): Linear(in_features=34, out_features=34, bias=True)
    (value_layer): Linear(in_features=34, out_features=34, bias=True)
    (layer_norm): LayerNorm((34,), eps=1e-05, elementwise_affine=True)
  )
  (attention_demand_features): Attention(
    (query_layer): Linear(in_features=23, out_features=23, bias=True)
    (key_layer): Linear(in_features=23, out_features=23, bias=True)
    (value_layer): Linear(in_features=23, out_features=23, bias=True)
    (layer_norm): LayerNorm((23,), eps=1e-05, elementwise_affine=True)
  )
  (pressure_1): Sequential(
    (0): LayerNorm((24,), eps=1e-05, elementwise_affine=True)
    (1): Linear(in_features=24, out_features=12, bias=True)
    (2): Linear(in_features=12, out_features=12, bias=True)
  )
  (pressure_2): Sequential(
    (0): LayerNorm((24,), eps=1e-05, elementwise_affine=True)
    (1): Linear(in_features=24, out_features=12, bias=True)
    (2): Linear(in_features=12, out_features=12, bias=True)
  )
  (flow_1): Sequential(
    (0): LayerNorm((34,), eps=1e-05, elementwise_affine=True)
    (1): Linear(in_features=34, out_features=12, bias=True)
    (2): Linear(in_features=12, out_features=12, bias=True)
  )
  (flow_2): Sequential(
    (0): LayerNorm((34,), eps=1e-05, elementwise_affine=True)
    (1): Linear(in_features=34, out_features=12, bias=True)
    (2): Linear(in_features=12, out_features=12, bias=True)
  )
  (demand_1): Sequential(
    (0): LayerNorm((23,), eps=1e-05, elementwise_affine=True)
    (1): Linear(in_features=23, out_features=12, bias=True)
    (2): Linear(in_features=12, out_features=12, bias=True)
  )
  (demand_2): Sequential(
    (0): LayerNorm((23,), eps=1e-05, elementwise_affine=True)
    (1): Linear(in_features=23, out_features=12, bias=True)
    (2): Linear(in_features=12, out_features=12, bias=True)
  )
  (pressure_sum): Sequential(
    (0): LayerNorm((12,), eps=1e-05, elementwise_affine=True)
    (1): Linear(in_features=12, out_features=24, bias=True)
    (2): Linear(in_features=24, out_features=24, bias=True)
  )
  (flow_sum): Sequential(
    (0): LayerNorm((12,), eps=1e-05, elementwise_affine=True)
    (1): Linear(in_features=12, out_features=24, bias=True)
    (2): Linear(in_features=24, out_features=24, bias=True)
  )
  (demand_sum): Sequential(
    (0): LayerNorm((12,), eps=1e-05, elementwise_affine=True)
    (1): Linear(in_features=12, out_features=24, bias=True)
    (2): Linear(in_features=24, out_features=24, bias=True)
  )
  (graph): Sequential(
    (0): LayerNorm((3,), eps=1e-05, elementwise_affine=True)
    (1): Linear(in_features=3, out_features=12, bias=True)
    (2): Linear(in_features=12, out_features=1, bias=True)
  )
  (flow_out): Sequential(
    (0): Linear(in_features=24, out_features=68, bias=True)
    (1): Linear(in_features=68, out_features=34, bias=True)
    (2): Sigmoid()
  )
  (pressure_out): Sequential(
    (0): Linear(in_features=24, out_features=48, bias=True)
    (1): Linear(in_features=48, out_features=24, bias=True)
    (2): Sigmoid()
  )
  (demand_out): Sequential(
    (0): Linear(in_features=24, out_features=48, bias=True)
    (1): Linear(in_features=48, out_features=23, bias=True)
    (2): Sigmoid()
  )
)
Model Parameter: 116507
Using RMSprop
Epoch #000, Conservation1: 1013783.5198, Conservation2: 472885557.4455, Conservation3: 320334759.7123
Epoch #000, Conservation1: 14876.1010, Conservation2: 1757.1154, Conservation3: 26196.7613
Epoch #001, Conservation1: 4717.1415, Conservation2: 414.3942, Conservation3: 7001.8167
Epoch #001, Conservation1: 571.2027, Conservation2: 73.5949, Conservation3: 1172.1530
…
