…
+----------------------+-------------------------------------------------------+
| Water flow file      | D:/GraphormerForRobustness/dataset2/demand_patten_361 |
|                      | 2/simulate_flow3.csv                                  |
+----------------------+-------------------------------------------------------+
| Water pressure file  | D:/GraphormerForRobustness/dataset2/demand_patten_361 |
|                      | 2/simulate_pressure3.csv                              |
+----------------------+-------------------------------------------------------+
KANSA(
  (flow_batch): Sequential(
    (0): Linear(in_features=96, out_features=12, bias=True)
    (1): Linear(in_features=12, out_features=96, bias=True)
    (2): FourierKANLayer()
    (3): FourierKANLayer()
    (4): LayerNorm((96,), eps=1e-05, elementwise_affine=True)
  )
  (pressure_batch): Sequential(
    (0): Linear(in_features=96, out_features=12, bias=True)
    (1): Linear(in_features=12, out_features=96, bias=True)
    (2): FourierKANLayer()
    (3): FourierKANLayer()
    (4): LayerNorm((96,), eps=1e-05, elementwise_affine=True)
  )
  (demand_batch): Sequential(
    (0): Linear(in_features=96, out_features=12, bias=True)
    (1): Linear(in_features=12, out_features=96, bias=True)
    (2): FourierKANLayer()
    (3): FourierKANLayer()
    (4): LayerNorm((96,), eps=1e-05, elementwise_affine=True)
  )
  (flow_features): Sequential(
    (0): Linear(in_features=34, out_features=12, bias=True)
    (1): Linear(in_features=12, out_features=34, bias=True)
    (2): ChebyshevKANLayer()
    (3): ChebyshevKANLayer()
    (4): LayerNorm((34,), eps=1e-05, elementwise_affine=True)
  )
  (pressure_features): Sequential(
    (0): Linear(in_features=24, out_features=12, bias=True)
    (1): Linear(in_features=12, out_features=24, bias=True)
    (2): ChebyshevKANLayer()
    (3): ChebyshevKANLayer()
    (4): LayerNorm((24,), eps=1e-05, elementwise_affine=True)
  )
  (demand_features): Sequential(
    (0): Linear(in_features=23, out_features=12, bias=True)
    (1): Linear(in_features=12, out_features=23, bias=True)
    (2): ChebyshevKANLayer()
    (3): ChebyshevKANLayer()
    (4): LayerNorm((23,), eps=1e-05, elementwise_affine=True)
  )
  (attention_pressure_batch): Attention(
    (query_layer): Linear(in_features=96, out_features=96, bias=True)
    (key_layer): Linear(in_features=96, out_features=96, bias=True)
    (value_layer): Linear(in_features=96, out_features=96, bias=True)
    (layer_norm): LayerNorm((96,), eps=1e-05, elementwise_affine=True)
  )
  (attention_flow_batch): Attention(
    (query_layer): Linear(in_features=96, out_features=96, bias=True)
    (key_layer): Linear(in_features=96, out_features=96, bias=True)
    (value_layer): Linear(in_features=96, out_features=96, bias=True)
    (layer_norm): LayerNorm((96,), eps=1e-05, elementwise_affine=True)
  )
  (attention_demand_batch): Attention(
    (query_layer): Linear(in_features=96, out_features=96, bias=True)
    (key_layer): Linear(in_features=96, out_features=96, bias=True)
    (value_layer): Linear(in_features=96, out_features=96, bias=True)
    (layer_norm): LayerNorm((96,), eps=1e-05, elementwise_affine=True)
  )
  (attention_pressure_features): Attention(
    (query_layer): Linear(in_features=24, out_features=24, bias=True)
    (key_layer): Linear(in_features=24, out_features=24, bias=True)
    (value_layer): Linear(in_features=24, out_features=24, bias=True)
    (layer_norm): LayerNorm((24,), eps=1e-05, elementwise_affine=True)
  )
  (attention_flow_features): Attention(
    (query_layer): Linear(in_features=34, out_features=34, bias=True)
    (key_layer): Linear(in_features=34, out_features=34, bias=True)
    (value_layer): Linear(in_features=34, out_features=34, bias=True)
    (layer_norm): LayerNorm((34,), eps=1e-05, elementwise_affine=True)
  )
  (attention_demand_features): Attention(
    (query_layer): Linear(in_features=23, out_features=23, bias=True)
    (key_layer): Linear(in_features=23, out_features=23, bias=True)
    (value_layer): Linear(in_features=23, out_features=23, bias=True)
    (layer_norm): LayerNorm((23,), eps=1e-05, elementwise_affine=True)
  )
  (pressure_1): Sequential(
    (0): LayerNorm((24,), eps=1e-05, elementwise_affine=True)
    (1): ChebyshevKANLayer()
    (2): ChebyshevKANLayer()
  )
  (pressure_2): Sequential(
    (0): LayerNorm((24,), eps=1e-05, elementwise_affine=True)
    (1): ChebyshevKANLayer()
    (2): ChebyshevKANLayer()
  )
  (flow_1): Sequential(
    (0): LayerNorm((34,), eps=1e-05, elementwise_affine=True)
    (1): ChebyshevKANLayer()
    (2): ChebyshevKANLayer()
  )
  (flow_2): Sequential(
    (0): LayerNorm((34,), eps=1e-05, elementwise_affine=True)
    (1): ChebyshevKANLayer()
    (2): ChebyshevKANLayer()
  )
  (demand_1): Sequential(
    (0): LayerNorm((23,), eps=1e-05, elementwise_affine=True)
    (1): ChebyshevKANLayer()
    (2): ChebyshevKANLayer()
  )
  (demand_2): Sequential(
    (0): LayerNorm((23,), eps=1e-05, elementwise_affine=True)
    (1): ChebyshevKANLayer()
    (2): ChebyshevKANLayer()
  )
  (pressure_sum): Sequential(
    (0): LayerNorm((12,), eps=1e-05, elementwise_affine=True)
    (1): ChebyshevKANLayer()
    (2): ChebyshevKANLayer()
  )
  (flow_sum): Sequential(
    (0): LayerNorm((12,), eps=1e-05, elementwise_affine=True)
    (1): ChebyshevKANLayer()
    (2): ChebyshevKANLayer()
  )
  (demand_sum): Sequential(
    (0): LayerNorm((12,), eps=1e-05, elementwise_affine=True)
    (1): ChebyshevKANLayer()
    (2): ChebyshevKANLayer()
  )
  (graph): Sequential(
    (0): LayerNorm((3,), eps=1e-05, elementwise_affine=True)
    (1): ChebyshevKANLayer()
    (2): ChebyshevKANLayer()
  )
  (flow_out): Sequential(
    (0): ChebyshevKANLayer()
    (1): ChebyshevKANLayer()
    (2): Linear(in_features=34, out_features=34, bias=True)
    (3): Linear(in_features=34, out_features=34, bias=True)
    (4): Sigmoid()
  )
  (pressure_out): Sequential(
    (0): ChebyshevKANLayer()
    (1): ChebyshevKANLayer()
    (2): Linear(in_features=24, out_features=24, bias=True)
    (3): Linear(in_features=24, out_features=24, bias=True)
    (4): Sigmoid()
  )
  (demand_out): Sequential(
    (0): ChebyshevKANLayer()
    (1): ChebyshevKANLayer()
    (2): Linear(in_features=23, out_features=23, bias=True)
    (3): Linear(in_features=23, out_features=23, bias=True)
    (4): Sigmoid()
  )
)
Model Parameter: 333688
Using RMSprop
Epoch #000, Conservation1: 467070.0138, Conservation2: 21254955.9058, Conservation3: 26147178.2699
Epoch #000, Conservation1: 1010.5197, Conservation2: 106.9387, Conservation3: 1163.9568
Epoch #001, Conservation1: 687.0553, Conservation2: 76.5890, Conservation3: 927.4044
Epoch #001, Conservation1: 246.6851, Conservation2: 33.5862, Conservation3: 361.0021
…
