…
+----------------------+-------------------------------------------------------+
| Water flow file      | D:/GraphormerForRobustness/dataset2/demand_patten_361 |
|                      | 2/simulate_flow3.csv                                  |
+----------------------+-------------------------------------------------------+
| Water pressure file  | D:/GraphormerForRobustness/dataset2/demand_patten_361 |
|                      | 2/simulate_pressure3.csv                              |
+----------------------+-------------------------------------------------------+
KANSA(
  (flow_batch): Sequential(
    (0): Linear(in_features=96, out_features=12, bias=True)
    (1): Linear(in_features=12, out_features=96, bias=True)
    (2): FourierKANLayer()
    (3): FourierKANLayer()
    (4): LayerNorm((96,), eps=1e-05, elementwise_affine=True)
  )
  (pressure_batch): Sequential(
    (0): Linear(in_features=96, out_features=12, bias=True)
    (1): Linear(in_features=12, out_features=96, bias=True)
    (2): FourierKANLayer()
    (3): FourierKANLayer()
    (4): LayerNorm((96,), eps=1e-05, elementwise_affine=True)
  )
  (demand_batch): Sequential(
    (0): Linear(in_features=96, out_features=12, bias=True)
    (1): Linear(in_features=12, out_features=96, bias=True)
    (2): FourierKANLayer()
    (3): FourierKANLayer()
    (4): LayerNorm((96,), eps=1e-05, elementwise_affine=True)
  )
  (flow_features): Sequential(
    (0): Linear(in_features=34, out_features=12, bias=True)
    (1): Linear(in_features=12, out_features=34, bias=True)
    (2): ChebyshevKANLayer()
    (3): ChebyshevKANLayer()
    (4): LayerNorm((34,), eps=1e-05, elementwise_affine=True)
  )
  (pressure_features): Sequential(
    (0): Linear(in_features=24, out_features=12, bias=True)
    (1): Linear(in_features=12, out_features=24, bias=True)
    (2): ChebyshevKANLayer()
    (3): ChebyshevKANLayer()
    (4): LayerNorm((24,), eps=1e-05, elementwise_affine=True)
  )
  (demand_features): Sequential(
    (0): Linear(in_features=23, out_features=12, bias=True)
    (1): Linear(in_features=12, out_features=23, bias=True)
    (2): ChebyshevKANLayer()
    (3): ChebyshevKANLayer()
    (4): LayerNorm((23,), eps=1e-05, elementwise_affine=True)
  )
  (pressure_1): Sequential(
    (0): LayerNorm((24,), eps=1e-05, elementwise_affine=True)
    (1): ChebyshevKANLayer()
    (2): ChebyshevKANLayer()
  )
  (pressure_2): Sequential(
    (0): LayerNorm((24,), eps=1e-05, elementwise_affine=True)
    (1): ChebyshevKANLayer()
    (2): ChebyshevKANLayer()
  )
  (flow_1): Sequential(
    (0): LayerNorm((34,), eps=1e-05, elementwise_affine=True)
    (1): ChebyshevKANLayer()
    (2): ChebyshevKANLayer()
  )
  (flow_2): Sequential(
    (0): LayerNorm((34,), eps=1e-05, elementwise_affine=True)
    (1): ChebyshevKANLayer()
    (2): ChebyshevKANLayer()
  )
  (demand_1): Sequential(
    (0): LayerNorm((23,), eps=1e-05, elementwise_affine=True)
    (1): ChebyshevKANLayer()
    (2): ChebyshevKANLayer()
  )
  (demand_2): Sequential(
    (0): LayerNorm((23,), eps=1e-05, elementwise_affine=True)
    (1): ChebyshevKANLayer()
    (2): ChebyshevKANLayer()
  )
  (pressure_sum): Sequential(
    (0): LayerNorm((12,), eps=1e-05, elementwise_affine=True)
    (1): ChebyshevKANLayer()
    (2): ChebyshevKANLayer()
  )
  (flow_sum): Sequential(
    (0): LayerNorm((12,), eps=1e-05, elementwise_affine=True)
    (1): ChebyshevKANLayer()
    (2): ChebyshevKANLayer()
  )
  (demand_sum): Sequential(
    (0): LayerNorm((12,), eps=1e-05, elementwise_affine=True)
    (1): ChebyshevKANLayer()
    (2): ChebyshevKANLayer()
  )
  (graph): Sequential(
    (0): LayerNorm((3,), eps=1e-05, elementwise_affine=True)
    (1): ChebyshevKANLayer()
    (2): ChebyshevKANLayer()
  )
  (flow_out): Sequential(
    (0): ChebyshevKANLayer()
    (1): ChebyshevKANLayer()
    (2): Linear(in_features=34, out_features=34, bias=True)
    (3): Linear(in_features=34, out_features=34, bias=True)
    (4): Sigmoid()
  )
  (pressure_out): Sequential(
    (0): ChebyshevKANLayer()
    (1): ChebyshevKANLayer()
    (2): Linear(in_features=24, out_features=24, bias=True)
    (3): Linear(in_features=24, out_features=24, bias=True)
    (4): Sigmoid()
  )
  (demand_out): Sequential(
    (0): ChebyshevKANLayer()
    (1): ChebyshevKANLayer()
    (2): Linear(in_features=23, out_features=23, bias=True)
    (3): Linear(in_features=23, out_features=23, bias=True)
    (4): Sigmoid()
  )
)
Model Parameter: 242116
Using RMSprop
Epoch #000, Conservation1: 407926.1778, Conservation2: 26572484.8055, Conservation3: 30438972.0385
Epoch #000, Conservation1: 1000.7437, Conservation2: 97.1882, Conservation3: 1643.7105
Epoch #001, Conservation1: 865.8821, Conservation2: 77.7051, Conservation3: 1172.9925
Epoch #001, Conservation1: 687.7811, Conservation2: 71.2491, Conservation3: 1117.8881
…
